_notebooks/celegans_pos_inr1.pt (torch, 13927 bytes, 12 tensors)

weight f4 [20, 1]
000000 22 85 3e bf 5c 51 b3 be 37 d1 2b 3f 90 2f 69 bf
       -0.74421895 -0.3502301 0.6711611 -0.910882
000010 fc ea 59 be 78 82 e1 3d bc 80 4e bf 09 5e 60 be
       -0.21281046 0.11011213 -0.80665183 -0.21910872
000020 05 3c 16 be 03 01 42 3f a5 35 93 be 0a 20 2b 3f
       -0.14671333 0.75782794 -0.28751865 0.6684576
000030 15 10 3b 3e 8f 46 f1 bd 3e 72 6e 3f 12 30 5c 3e
       0.18267854 -0.11781036 0.9314307 0.21502712
000040 05 26 37 3f 35 aa 4a bf b7 03 c8 bd 1a ec 82 bf
       0.7154239 -0.79165965 -0.097663336 -1.0228302

bias f4 [20]
000000 1b 9c 58 3f 45 5c 33 bf 8b 22 9d be f5 ef 22 3f
       0.846132 -0.7006267 -0.30690417 0.63647395
000010 81 da 0b be 3a 81 29 bf cf 63 0e bf 14 d6 a2 be
       -0.13657571 -0.6621281 -0.55621046 -0.31803954
000020 e9 a2 a8 be a7 5c 50 bf 56 0f 0f bf 71 80 e8 be
       -0.3293679 -0.81391376 -0.55882776 -0.45410493
000030 67 73 04 bf 25 4c d3 be e8 1f 80 3e 8c 6d 2f 3d
       -0.5173859 -0.4126903 0.25024343 0.04282908
000040 fd c2 6c be f0 21 77 bf 3c 87 9d be c7 60 82 3c
       -0.23121257 -0.9653616 -0.30767238 0.015915288

weight f4 [20, 20]
000000 62 b6 28 3c 99 a2 d1 bb c5 c2 2b b8 ad 8d b9 bc
       0.01029739 -0.006397557 -4.095097e-05 -0.022650564
000010 16 ed 6f bb 9f 1c 26 bc 30 24 60 3c 36 24 ca 3a
       -0.003660982 -0.01013866 0.013680503 0.0015422169
000020 74 f7 bf 3b 8f 7f da bb a0 c8 84 3c c2 8d 26 3d
       0.005858356 -0.006668038 0.016208947 0.040662535
000030 e8 de b3 bc 5d 56 51 bc a2 2c a5 3b 35 29 58 3c
       -0.021956876 -0.012776938 0.005040721 0.013193418
000040 a0 47 a3 3c 1e f5 79 3a d8 19 bb ba e1 ee 8f 3b
       0.019931614 0.00095351215 -0.001427467 0.0043924903
000050 49 91 fd bb 46 c1 2e 3c 14 76 a5 bc 09 e6 87 3c
       -0.0077382666 0.010666197 -0.020197906 0.016589181
000060 3c 9f 91 3a ee f5 83 3c d4 76 ae 3c 96 c9 40 3c
       0.0011110078 0.01610848 0.021296896 0.011766812
000070 15 7b 11 3c 2c bc 0b bc e7 7b 64 3b 20 2f 34 bb
       0.008879443 -0.00852875 0.003486389 -0.002749391
000080 ff e6 70 3a a9 ff a6 bc e3 ec 94 3c fa 45 33 3c
       0.00091896945 -0.02038558 0.018179363 0.010941977
000090 92 39 b1 3a fb d1 80 bb 9c 25 ca 3c cf 5a 91 bb
       0.0013521186 -0.0039312816 0.024676137 -0.004435874
0000a0 e6 4e 7c bc b1 5f f3 bb 6b ac 92 bc dc 2f c8 3b
       -0.01539967 -0.007427179 -0.01790448 0.006109221
0000b0 79 a5 6a 3b bb 80 73 bb 1a 3d ec bc 72 6c 6a bc
       0.0035804196 -0.0037155587 -0.02883773 -0.014308082
0000c0 70 4e a7 bc 94 ed 85 bc 49 ce 0a bc 8d 4b 30 3c
       -0.020423144 -0.016348638 -0.008472034 0.0107602
0000d0 b6 a3 8c 3c 33 c3 ec 3a 6a 1a 6e 3b 1f 86 61 3b
       0.017167907 0.0018063545 0.0036331662 0.0034412218
0000e0 57 1b 92 3c f3 37 64 bb 52 fb 60 bb 69 fa 7e bc
       0.017835302 -0.0034823387 -0.0034329486 -0.015562632
0000f0 6c 65 2c bc 82 5e 4b bb 85 75 0f bc 5a f2 2d bc
       -0.010522228 -0.0031031673 -0.008756046 -0.010616863
000100 c4 11 8b bc 40 a1 2d bc 8d 4f 81 3c 87 fe f2 3b
       -0.016976245 -0.010597527 0.015785003 0.007415596
000110 e2 78 57 3b 22 9b b0 3b 2a cf 8e bc 5c ff 46 3b
       0.0032878448 0.005389587 -0.017432768 0.0030364608
000120 77 25 26 bb f6 69 c6 bc 01 23 c7 bc c3 8d 92 bc
       -0.002535192 -0.024220448 -0.024308683 -0.017889863
000130 d9 89 6a 3c 38 fe 4b bb b5 3d 2d bb 03 85 24 3c
       0.014315092 -0.0031126868 -0.0026434485 0.010041478
000140 0b 82 33 3c d9 cd b5 3c 14 e3 66 3b 14 5c 36 3c
       0.010956298 0.022192882 0.0035230564 0.011130352
000150 57 54 c9 bc 32 16 90 bb 47 87 be 3c 45 a5 98 bb
       -0.02457635 -0.004397177 0.023257865 -0.0046583735
000160 62 57 7e bb 65 d4 1f 3b 0e 89 50 bc 1e d9 c5 3c
       -0.0038809408 0.0024388072 -0.012727989 0.024151381
000170 5f ab 36 3b 84 17 46 3c 31 8e 7f 3c 76 e7 3c 3b
       0.0027873141 0.0120905675 0.015597866 0.0028824485
000180 24 45 3a 3c f8 6b a9 bb d8 48 5f 3c a0 b8 e6 bb
       0.0113690235 -0.0051703416 0.013628207 -0.007041052
000190 6a 61 81 3b bf a8 99 bc 08 e6 03 3d a4 90 93 3c
       0.0039483802 -0.018757222 0.032201797 0.018013306
0001a0 a6 b1 f3 3b 3c a2 ed 3b de 19 bb 3c 68 d1 24 bc
       0.007436949 0.007252006 0.022839483 -0.010059692
0001b0 81 69 a6 bc 3a d2 b4 ba ab 02 f6 3a 55 5c 0b bd
       -0.02031398 -0.0013795563 0.0018769106 -0.0340236
0001c0 e0 a5 21 3c 7b 7a 71 3c 20 00 ba bc 1c 9d 0c bc
       0.009866208 0.014738674 -0.022705138 -0.00858238
0001d0 c0 a3 28 bb bc cd 18 3c 12 57 a6 bb 1e ec 36 3d
       -0.0025732368 0.009326395 -0.0050762976 0.044658773
0001e0 10 b6 9b bc 74 0a 55 bc 77 2a 95 bb d1 2f a7 3c
       -0.019007713 -0.0130029805 -0.0045521813 0.020408543
0001f0 32 ea c4 3b d2 c3 70 3c ff 84 ba 3b 3d fd 0e 3c
       0.0060093636 0.014695125 0.005692124 0.008727369
000200 2a d6 d6 3c c6 84 cd bb cd f7 8e 3b e5 2f 42 bc
       0.026225168 -0.0062719313 0.0043630362 -0.011852239
000210 7c 9e 73 bc 21 69 d1 bc 57 be 00 bc 7c 20 59 3c
       -0.014869329 -0.025562825 -0.007857881 0.013252374
000220 5c af e8 3c 73 0b 15 3c 80 e5 66 3c 61 f7 c0 bb
       0.02840393 0.009096968 0.014092803 -0.005888865
000230 6c eb d8 3b 85 24 6b bb 2a cf af 3c 34 09 be 3c
       0.0066198613 -0.0035879922 0.021461088 0.023197748
000240 4a 44 79 3c 4e 43 5e 3c 7f 25 b3 bc bf 47 fb 3b
       0.015214035 0.013565851 -0.021868465 0.007668465
000250 73 27 8c 3b 3a f3 55 3c b1 53 49 bc b8 02 31 3c
       0.0042771637 0.013058478 -0.01228802 0.010803871
000260 d8 59 1f b9 0b f8 4d 3c df c6 b0 bb 03 e6 ba bb
       -0.00015196891 0.012571345 -0.005394801 -0.005703689
000270 92 2b 94 bb 23 a3 24 3b 12 b4 02 3c 78 c3 15 bb
       -0.0045217955 0.002512165 0.007977502 -0.0022852104
000280 af 94 52 3c ed ad c6 3a 1e 77 a7 bc a5 87 72 bb
       0.012852832 0.0015158035 -0.020442542 -0.003700712
000290 41 19 88 bb 6d 1b aa 3a 6c 1e a7 3c d5 42 68 bc
       -0.004153401 0.0012978144 0.020400248 -0.01417609
0002a0 a2 ec a8 3b ae bd 33 bc 3b e3 9b 3b 53 07 6f 3b
       0.005155162 -0.010970516 0.0047573126 0.0036472871
0002b0 48 24 c8 3b f6 3c 62 3c df 25 17 3d 99 2e 72 bc
       0.0061078407 0.0138084795 0.03690135 -0.014781618
0002c0 27 c8 63 3b 91 9d 40 3b b8 a3 32 bc 8c 90 6a bd
       0.0034756751 0.0029390792 -0.010903291 -0.057266757
0002d0 99 ea c0 3b 6e e1 6b 3b 10 7e 52 3c bd 97 fd bb
       0.005887341 0.003599252 0.012847438 -0.007739036
0002e0 45 15 34 bc ae 1a ec ba 94 fa 05 bc 07 9a 44 bc
       -0.010991399 -0.0018013322 -0.008177418 -0.011999614
0002f0 29 00 3a 3c f6 a8 d8 ba 66 fd 4e bc 05 c2 7a bb
       0.011352577 -0.0016529846 -0.012633657 -0.0038262617
000300 61 37 9e bc 87 73 94 bc 26 4e 10 3d 0c 17 3f bc
       -0.019313516 -0.018121494 0.03523078 -0.01166321
000310 61 ef bf 3b 2a 41 fb bb a3 e7 ac 3c 1c dd 91 3b
       0.0058573936 -0.0076676803 0.021106547 0.004451407
000320 26 11 48 bc a0 8b fd bc fd d7 9d bb 7f ab 1b 3b
       -0.01221112 -0.030950367 -0.0048170076 0.0023753343
000330 2c a9 08 3c 18 0d 75 3c 08 9b 57 3a 5a 23 6e bc
       0.008341115 0.014956735 0.00082247006 -0.014534796
000340 fc c9 76 bc 81 59 d6 3c 2c c5 6c 3c 0d 2c 76 bc
       -0.015062805 0.026165726 0.014451306 -0.015025151
000350 dc 08 83 3c af 19 47 bb dd 52 28 bd e4 b6 1c ba
       0.015995435 -0.00303803 -0.04109465 -0.00059781806
000360 b9 3a 0d bc 2f d3 06 3c 81 3b f2 3c 86 fd 50 3d
       -0.008619958 0.008229061 0.02956939 0.05102303
000370 3a 6f 0c bc 93 68 e3 bb c8 4d 07 bb 22 4f ec 3c
       -0.00857144 -0.0069399565 -0.0020645726 0.028846327
000380 e4 6f 37 bc 94 0e 4a bc dc fc 88 3b 56 92 a2 3c
       -0.01119611 -0.012332577 0.004180534 0.019845169
000390 05 a6 4f bc 09 9c a2 ba 3e 08 73 bc c2 cb 56 bc
       -0.0126738595 -0.0012406121 -0.014833508 -0.013110103
0003a0 43 cd 7c bc 0a de 11 3c 6e 7e cb bb 2c ff 76 ba
       -0.015429798 0.008903036 -0.00621014 -0.0009422179
0003b0 55 59 5f bc 8c 17 ac 3c 48 7f 99 3c 10 8a 8c 3c
       -0.013632138 0.021007322 0.01873745 0.017155677
0003c0 6a 44 12 bd 74 2b 80 bc 8e e5 0b 3c 37 88 87 3c
       -0.035709776 -0.01564572 0.008538617 0.016544444
0003d0 50 5c 9e bb ed 29 70 3c ae 86 12 bc c2 6e 15 3a
       -0.004832782 0.014658433 -0.008943243 0.0005700403
0003e0 63 41 f2 3b e7 7d 4d 3c fa dd f8 3b ce 08 6b bc
       0.0073930486 0.0125422245 0.007594821 -0.014345361
0003f0 e8 7f 17 bc 99 3c ee bb 0e a0 a1 3c 48 b2 cc 3b
       -0.009246804 -0.0072704074 0.01972964 0.0062468387

bias f4 [20]
000000 ce 73 da bb 51 5e fe 3b 64 de 81 bc d4 99 1d 3c
       -0.006666637 0.0077627082 -0.015853114 0.009619195
000010 b1 43 d0 b9 85 7f 13 3c 11 af 9b 3c 82 77 c5 3b
       -0.00039723286 0.009002571 0.019004377 0.0060262093
000020 43 92 04 bc 9a e5 80 3c 29 c0 9b 3c cb d6 8f bb
       -0.008091512 0.015734483 0.019012528 -0.004389619
000030 ba 24 9d 3c c4 61 11 bc 5b 37 57 bc ad 33 31 3c
       0.019182552 -0.008873407 -0.013135756 0.010815543
000040 4e 8f 3a bc 86 d3 72 3b 82 f9 e8 bc 68 8e 8e bc
       -0.011386706 0.0037052347 -0.028439287 -0.017401889

weight f4 [20, 20]
000000 fc d7 40 3c 29 77 ea bb 1e 29 c2 bb 61 1a 40 bc
       0.011770245 -0.0071553183 -0.0059253117 -0.011725039
000010 19 3f 92 bb 29 6a a5 bc c2 ce c6 bc b4 fc a1 bc
       -0.0044630882 -0.020192223 -0.024268512 -0.019773819
000020 c8 24 9f 3c cf d7 e4 3b b1 ed 4e bc 0c 7d a7 bb
       0.019426718 0.006983734 -0.012629912 -0.0051113423
000030 39 bd 98 bc a2 ac 3c 3c 2d 9e e4 bc 17 ad e1 bc
       -0.018644916 0.011515768 -0.027907455 -0.027548356
000040 a4 60 f6 bb 95 39 c9 3b 2a a4 d5 3b 49 cf 65 3b
       -0.0075188447 0.0061408975 0.006519814 0.0035066179
000050 b8 e9 d7 bb 36 37 be 3c 70 e9 0e bc 5b 56 04 bd
       -0.0065891407 0.023219686 -0.008722648 -0.032308917
000060 07 c3 7c bb bb ec 95 bc e0 c3 f1 3b 14 4a 0b bc
       -0.0038568394 -0.018301358 0.0073780864 -0.008501548
000070 d9 1e cc bb 3e 5b 40 3c a0 be 96 3c 55 60 d3 bc
       -0.0062292633 0.011740504 0.018401444 -0.02580277
000080 00 97 6d bb e7 87 1c bc 98 68 a8 bc ff 7d ac 3b
       -0.0036253333 -0.009553886 -0.020557687 0.0052640433
000090 73 2d a1 3c 5c ca bb 3c 95 39 a5 b9 65 9a 0b 3c
       0.019674992 0.02292364 -0.00031514154 0.008520697
0000a0 87 53 e7 bc 6c 08 1a bc 38 da 57 3b e6 66 a0 3c
       -0.028238071 -0.009401422 0.0032936465 0.019580316
0000b0 62 c4 bd 3b dc e0 55 3d 16 72 23 bc 07 56 01 3c
       0.005791233 0.052216396 -0.009975931 0.007894046
0000c0 24 28 47 3c 56 e1 15 3b be 1c 63 ba ba bd 15 3c
       0.012155566 0.0022869906 -0.0008663646 0.009139473
0000d0 ff ff 3d bc 35 dd 72 bc b3 b4 f8 bb 01 25 db 3c
       -0.011596679 -0.014823248 -0.0075899004 0.026751043
0000e0 c1 ac 34 3c c6 f9 a1 3b be 8f 96 bc 53 a1 19 bc
       0.011027516 0.0049431054 -0.018379088 -0.009376842
0000f0 84 b7 66 bc 3d ea aa bc cf a5 b2 3c ef 06 1e 39
       -0.0140818395 -0.020863647 0.02180758 0.00015070637
000100 cd 60 26 3c f2 93 2c bc 35 8d 9d ba 88 69 f6 ba
       0.010154915 -0.01053332 -0.0012020232 -0.0018799761
000110 9a 6c 58 3c 6d 6b 2d bc f3 28 d9 3a f6 61 97 bc
       0.013209486 -0.010584694 0.001656799 -0.018479329
000120 5b a2 06 bc 8e 27 45 bc 00 7a 46 3b 79 bb 83 3b
       -0.0082174195 -0.012033356 0.003028512 0.004020151
000130 e9 66 2b bc 32 d5 15 bb ce b1 ab bb af fb 87 3a
       -0.010461547 -0.002286267 -0.005239702 0.001037469
000140 12 f2 eb bc e0 fb 63 3b fc 57 4c ba 10 b3 d4 bb
       -0.028801952 0.003478758 -0.0007795093 -0.0064910725
000150 98 c2 07 bb 7f 39 b0 3c 85 42 28 bc 07 f3 af 3c
       -0.0020715352 0.021511791 -0.010269766 0.02147819
000160 80 81 03 ba 4f cc c0 bc df da bd bc 46 78 76 bc
       -0.00050165504 -0.023534922 -0.023175655 -0.015043324
000170 49 37 b3 bb d1 33 18 3b 2a 02 0f 3c 3c 90 00 3c
       -0.005469237 0.0023224244 0.008728543 0.007846888
000180 7c 09 85 bb af f1 85 bc 41 75 22 3a b9 5d f2 3c
       -0.0040599685 -0.016350595 0.0006197282 0.029585706
000190 89 bc 7f bc 4f e1 3d 3c ef d0 66 bc e7 87 02 3d
       -0.015608915 0.011589362 -0.0140879 0.031867888
0001a0 2b 8c 9b 3c 50 db 1a 3c c0 cd ca b9 f6 a3 59 bc
       0.018987736 0.009451702 -0.00038681738 -0.01328372
0001b0 07 78 c1 bc 1b f4 96 3c 8e 43 84 3d d0 3a 98 bc
       -0.023616804 0.018426945 0.064581975 -0.018582731
0001c0 76 5f 9d 3c db c4 2d bc 00 19 05 3c f1 4c 05 3c
       0.019210558 -0.010606016 0.008123636 0.00813602
0001d0 8a 45 1c bc ff d0 c5 3c 8e a4 8a bc bc 29 e5 bb
       -0.009538064 0.024147509 -0.016924169 -0.0069935005
0001e0 b3 61 60 3c ca 15 75 bc 98 f1 66 bc 57 1d 67 bc
       0.013695168 -0.014958808 -0.014095686 -0.014106116
0001f0 dd 8e 3a bc 4c 33 71 3c 88 22 d4 bb 8f 1e 25 bc
       -0.0113866 0.014721703 -0.006473843 -0.0100780865
000200 e2 92 8d bb 29 ae af 3c 5c 22 2d 3c 2f 7c 2f 3c
       -0.0043204883 0.02144535 0.010567274 0.01071076
000210 f5 18 94 bc f7 5f ac 3c ac 22 fb 3b ae 28 4f bb
       -0.018078307 0.021041853 0.0076640453 -0.003160994
000220 27 df 42 bc 47 34 83 bc 6e 79 14 bc c7 6c 12 3c
       -0.011894024 -0.016016139 -0.009062154 0.008937067
000230 95 8c 5f 3c 6d e6 aa 3c 43 b2 41 bc ad b8 c2 3c
       0.013644357 0.020861829 -0.011822286 0.0237697
000240 ea c2 33 ba 6a 12 d2 bc df 4c 79 3b cb 38 97 3c
       -0.00068573526 -0.025643546 0.0038040204 0.018459698
000250 09 74 b5 3c 4f 23 4f b9 15 d2 e6 bc 72 e6 28 3b
       0.022150056 -0.00019754212 -0.028176347 0.0025772122
000260 a7 30 72 3c bd c0 1d bc 3f 8b 93 bc d2 44 4e 3c
       0.014782107 -0.009628472 -0.018010734 0.01258965
000270 b8 de 73 bc 2b a3 59 3a 35 b9 a3 3c 56 bc 25 3c
       -0.014884643 0.0008302207 0.019985775 0.010115704
000280 c9 15 dd bc 46 7c e7 3b 24 02 c7 bc 04 50 83 3b
       -0.026987927 0.007064375 -0.024293013 0.0040073413
000290 48 04 a1 bc fd ce 8a 3c c6 e2 f0 3b cd 45 01 3c
       -0.019655362 0.016944403 0.0073512523 0.007890177
0002a0 7e 1f 27 bb 04 4d 54 bb aa a4 b2 ba bd 5a 74 bb
       -0.0025500949 -0.0032394538 -0.0013629396 -0.003728553
0002b0 f8 d9 8e ba 30 65 cb ba 27 5b 94 bb f3 09 ba bb
       -0.00108987 -0.0015517827 -0.004527468 -0.0056774556
0002c0 80 c9 03 bc c2 8b 22 ba f9 31 e8 3c 6f d7 86 bc
       -0.008043647 -0.0006200635 0.028344141 -0.016460149
0002d0 e2 97 0a 3c 3b 85 f4 3b 99 3a 93 3c b6 4e 66 3c
       0.008459063 0.0074621714 0.017972277 0.014056852
0002e0 96 81 9b bb 4d 39 98 3b aa a0 16 bc c8 55 b8 3a
       -0.0047456725 0.0046455027 -0.009193579 0.0014063651
0002f0 8f 7b 91 3c 66 c1 41 bc b1 71 8f bc 36 fd 45 bc
       0.017759113 -0.011825895 -0.017510267 -0.012084296
000300 0f e3 ff bc 17 6e e3 ba 7a 3c be 3c d3 78 a6 bb
       -0.0312362 -0.0017351535 0.023222197 -0.0050803213
000310 3b 21 ba 3c 1f a3 f7 bc 61 11 b4 bc 95 4e 4c 3b
       0.022720924 -0.03022915 -0.021980943 0.0031174768
000320 7f 85 55 3b 55 de ad bb e0 db b5 bc e7 40 92 bc
       0.003258079 -0.005306045 -0.022199571 -0.017853213
000330 93 31 c3 bc fc bf a0 3c bb f6 b5 bc e8 61 95 ba
       -0.02382735 0.019622795 -0.022212377 -0.0011396976
000340 b9 9b a2 3c 4e 3e 66 3b 1c eb 3b 3c ac 1b 87 bb
       0.019849645 0.0035132351 0.011469629 -0.004123172
000350 5c 0b 38 bc b0 d2 06 bb ae ce f3 3b ff 15 39 ba
       -0.011233177 -0.0020572357 0.0074404096 -0.00070604676
000360 db b0 6e bb 92 ff 86 3b d0 ae ee bb d4 35 34 bc
       -0.0036421332 0.004119822 -0.007284023 -0.010999162
000370 23 5a db 3b 4d 98 6c 3c 5d cb 74 bb 6c 32 9d 3a
       0.0066940947 0.014440608 -0.003735266 0.0011993176
000380 cb 89 7e bb cc 7b 1e 3d a8 18 a9 bc 3d 24 8b 3a
       -0.0038839455 0.03869228 -0.02064164 0.0010615658
000390 7e 9f 7a ba 1b a6 aa 3c 9d a2 1e 3d de 15 90 bc
       -0.00095605094 0.020831158 0.0387293 -0.017588552
0003a0 1b 3b 27 3c 68 8f 0e bb 30 1c f4 bb 64 98 7e 3c
       0.010206963 -0.0021752957 -0.0074496493 0.015539262
0003b0 ff 43 31 bd 56 69 4f 39 c9 cb 8b bc 3f a8 75 3c
       -0.043277737 0.00019780299 -0.017064946 0.014993726
0003c0 c1 65 53 bc 30 aa d4 3a 6a dd b4 3c 08 bc 17 3c
       -0.012902678 0.0016225036 0.022078235 0.009261139
0003d0 63 7e d1 3c ac a9 89 3c 1c b4 c7 b8 f2 c8 ad bc
       0.025572961 0.016804539 -9.5226074e-05 -0.021213982
0003e0 6e 51 f4 bb 39 a5 cc 3b 45 02 75 bc 28 ef 49 3c
       -0.0074559962 0.006245282 -0.014954154 0.012325086
0003f0 dc db be bc 15 84 88 3c 0c a5 a2 3b b6 8d 8a ba
       -0.023298196 0.016664544 0.004963523 -0.0010570798

bias f4 [20]
000000 b3 da 92 bc 4e 76 4c 3c 0e cc 4a bc 2b c3 c1 bc
       -0.01792655 0.012479378 -0.012377752 -0.023652634
000010 14 c9 5b bc 0c 5a ca 3c e8 2a bc bb f5 0d 86 b9
       -0.01341464 0.02470114 -0.0057424195 -0.0002556887
000020 f8 93 ab 3c fc 60 89 bc ff 4e 60 bc 51 7f 9c 3b
       0.02094458 -0.016769879 -0.013690709 0.0047759195
000030 ff d1 5d bc 73 7c 80 3a eb 43 51 bc bb 1c 1e 3b
       -0.0135388365 0.0009802714 -0.012772541 0.0024126011
000040 47 a8 a5 3c 7c 58 26 bb 89 cb 61 3c 40 bd cc 3a
       0.020221842 -0.002538233 0.013781437 0.0015620366

weight f4 [20, 20]
000000 31 c3 3b ba 0d 40 f1 3a 7a 91 2f bc cf e1 d6 3c
       -0.00071625697 0.001840593 -0.010715837 0.02623072
000010 b4 84 00 39 cc a5 8d bc d1 c5 ed 3b f1 30 51 bc
       0.00012256467 -0.017290972 0.0072562476 -0.012768016
000020 0c e5 a7 bb 97 8c 76 3c 87 18 93 ba 82 dc 85 3c
       -0.00512374 0.015048168 -0.001122252 0.016340498
000030 6e 87 98 bb 81 78 4e 3b 46 0b 7b 3c 6b c8 80 bb
       -0.0046548164 0.0031504931 0.015322512 -0.0039301417
000040 6a 9a 5b bc fe ed 9a bc 49 d8 e1 bb ec c7 f9 ba
       -0.013403514 -0.018912312 -0.0068922383 -0.0019056774
000050 b3 55 c2 bc f7 8f 12 3c c3 63 c6 bb 6d d9 3d bc
       -0.023722505 0.008945457 -0.006054373 -0.011587483
000060 e4 f1 d9 bc 7a 5b 80 3c 14 a3 d4 3b 7d 39 a5 3a
       -0.0266046 0.01566862 0.006489167 0.0012605634
000070 28 67 3a 3c 8b 74 f0 bb 57 b4 85 3b ba ac 1e bc
       0.011377133 -0.0073381118 0.004080336 -0.009684736
000080 9f ca eb 3b 25 05 6d ba 31 d4 24 bc d2 13 e2 3b
       0.007195785 -0.0009041599 -0.010060356 0.0068993354
000090 99 1a c7 3b ef b7 98 bc c0 ec c6 bb d0 65 ef 3a
       0.0060761687 -0.018642394 -0.0060707033 0.0018264595
0000a0 d9 21 8e bc 02 dd 83 3b ea 7c 7b 3c f9 3b 14 3c
       -0.017350124 0.004024149 0.015349606 0.009047502
0000b0 86 e0 e2 bb 9b fe 71 3c ca cb 99 3a d2 3f 49 bc
       -0.006923738 0.014770175 0.0011733708 -0.012283282
0000c0 1e 9a 97 3c da 73 ac 3b 67 f2 a4 ba 65 a5 41 bb
       0.018506106 0.005262834 -0.0012584449 -0.0029548046
0000d0 4a ea c1 bb 5c e5 8e bc d7 df f5 ba 5c 75 15 3c
       -0.005917822 -0.017443351 -0.0018758726 0.009122219
0000e0 97 ed d7 bb bd 3d 1b 3c b8 da bd 3c b1 09 dd 3a
       -0.006589602 0.009475169 0.023175582 0.001686385
0000f0 b1 c7 62 3c 07 4a 0f 3a 4a 62 a6 38 f1 7a a7 bc
       0.013841555 0.0005466048 7.9338046e-05 -0.020444365
000100 64 cb 0a b8 49 36 bb 3c 7b 24 35 bc e4 b4 76 bb
       -3.3091186e-05 0.022853034 -0.011056061 -0.003764444
000110 fb 0e d8 3b d8 b7 b3 bc 90 71 8b bc a7 46 81 3b
       0.0065935827 -0.02193825 -0.017021924 0.00394519
000120 02 03 7d bc a1 a4 2c 3c 80 fe 5b bc 32 78 62 ba
       -0.015442612 0.010537297 -0.013427377 -0.00086391263
000130 46 90 fa bb c2 31 2c 3c 4f 43 0e 3c 55 d4 dd bb
       -0.0076465933 0.01050991 0.00868304 -0.0067696967
000140 36 84 e7 b9 df 4f be bc de 25 6b 3c 26 71 3c 3c
       -0.00044158258 -0.023231445 0.01435229 0.011501586
000150 60 21 35 bc 3f fe 93 bc 85 61 50 3c 3b 88 44 3c
       -0.0110553205 -0.01806557 0.012718563 0.0119953705
000160 91 1f 58 3b ca c7 34 3a 4f 37 10 bb 90 84 26 bd
       0.00329778 0.0006896226 -0.0022005623 -0.040653765
000170 30 3f 84 bc a4 0a fb b9 56 45 12 3d 73 83 fc bb
       -0.016143411 -0.0004788238 0.035710655 -0.0077060997
000180 14 d4 e6 bc f8 82 35 39 1d 45 13 3d ad 33 8c bc
       -0.028177299 0.00017310295 0.035954583 -0.017114485
000190 a0 39 a2 3c 30 92 82 3c f6 92 81 bb 64 29 21 bc
       0.019802868 0.015938848 -0.0039542867 -0.009836528
0001a0 4f 9c 4a 3c 59 1a c7 3c 11 23 1c bc 6d 57 43 3b
       0.012366368 0.024304556 -0.009529845 0.0029806748
0001b0 e2 46 12 3c 28 37 ed bc 01 ec 49 3a 41 c1 0f bd
       0.008928033 -0.028956965 0.0007702709 -0.03509641
0001c0 69 c2 e6 ba 69 a8 59 3c 5e ff af 3b 71 05 d2 3c
       -0.0017605546 0.013284781 0.0053710183 0.02563736
0001d0 68 9f 60 3c b2 9f ea 3c 22 78 2c 3c e8 34 95 3c
       0.01370988 0.028640602 0.010526689 0.018213704
0001e0 06 3a 1d ba 70 af fb 3b 94 10 d6 ba 6a ea 13 3a
       -0.0005997721 0.007680826 -0.0016331845 0.00056425354
0001f0 91 43 96 3c c7 9a be 39 77 16 2a bc 50 a2 15 bc
       0.018342765 0.00036354942 -0.010381333 -0.009132937
000200 c0 d0 70 3c d1 27 cb bc a3 1e 8d bc d0 77 dd bb
       0.014698207 -0.02479926 -0.017226523 -0.0067586675
000210 1f bb 21 b9 5d bf 08 bc d8 d9 78 bc 58 8c 17 3b
       -0.00015423865 -0.008346406 -0.015188657 0.0023124423
000220 96 48 26 bb ef 08 17 3c 03 f9 9c 3c 77 64 70 3c
       -0.0025372854 0.0092184385 0.019161707 0.01467239
000230 7d dd f0 3b fe d2 87 bc b3 fe 01 bb 03 6e 40 3c
       0.007350622 -0.016580101 -0.001983565 0.011744979
000240 b3 fd a0 3c 04 64 95 3c e7 1d 8f bc 66 8a 23 bb
       0.019652223 0.018236168 -0.017470313 -0.0024954318
000250 43 a0 91 3c 43 d4 fa 3c 1b f1 6f bb 6c f0 d3 bc
       0.017776614 0.030618792 -0.0036612216 -0.025871478
000260 9e e9 03 bc 3d 1d 36 3c 02 f8 08 3d c5 ef 93 bb
       -0.008051304 0.011115369 0.033439644 -0.0045146667
000270 c2 5e e8 bb 30 3a 96 bc 02 95 1a b8 9a 0e d3 3c
       -0.007091374 -0.018338293 -3.6855236e-05 0.025763799
000280 70 7e 57 3c 55 16 06 bc 73 e2 ea 3b f2 ad c8 3c
       0.013152704 -0.008184035 0.007168108 0.024497006
000290 86 60 4a bc 6b 5c 86 3c 99 98 d5 bb ce 2a 3e bb
       -0.012352115 0.01640149 -0.006518435 -0.0029017213
0002a0 2a 41 c5 bc e5 8f 18 bb d8 e4 60 3c 0a 58 1d bc
       -0.024078924 -0.0023279127 0.013726436 -0.00960351
0002b0 98 5e 94 bc 7f 56 8c 3c 78 71 04 bb 69 5c 4a bc
       -0.018111512 0.017131088 -0.0020209234 -0.012351134
0002c0 df 96 97 bc 00 58 bf 3c 09 a7 86 bc bd b2 8b bc
       -0.018504558 0.023357391 -0.01643707 -0.017053002
0002d0 9c 8b 04 bc b0 4f 80 3c e3 22 7c bc 9f bb 6a 3b
       -0.008089926 0.015662998 -0.015389177 0.0035817397
0002e0 a4 9e e7 bb d2 ce 91 3c 4a f1 c2 bb ea 5b 46 bb
       -0.007068472 0.017798815 -0.005949174 -0.0030267187
0002f0 74 22 39 bb 78 f3 ab bc b0 02 90 bc ff 76 16 3c
       -0.0028249295 -0.020990118 -0.017579406 0.009183644
000300 e5 5c f8 3b d1 46 b7 3c a7 ac 84 bc 6c 21 32 bb
       0.0075794333 0.022372635 -0.016195608 -0.0027180566
000310 65 e0 e2 3c 78 1c c9 bb b1 a8 46 3b bb fe 9c 3b
       0.02769489 -0.006137427 0.003031295 0.0047911084
000320 91 2d 8b 3c b6 87 81 bc 25 21 21 bc 6d fd 15 bc
       0.016989501 -0.015811782 -0.009834562 -0.00915466
000330 aa 60 7c bc dd f7 93 bc 99 8b 30 bc 01 48 73 bc
       -0.015403906 -0.018062526 -0.01077547 -0.01484871
000340 a5 3a 31 bb 1f 20 a9 ba 7c 3b 8d bc 20 ca 27 3c
       -0.0027043012 -0.001290325 -0.017240278 0.010241061
000350 dd 8b 89 3a 58 bb 14 bc 11 87 79 bc 72 59 3e bc
       0.0010493953 -0.009077869 -0.015229956 -0.011618005
000360 b4 f4 a2 3c dd ca 5a bc ae 43 1d 3d 13 ec b6 bb
       0.019892074 -0.01335403 0.038394623 -0.0055823415
000370 80 82 a8 3c 5f 96 13 bb c2 5c 25 3c f0 c3 2e 3c
       0.02057004 -0.0022520048 0.010092916 0.010666832
000380 46 50 20 bb 3a 33 6e bc e4 45 a9 3b 9b f0 f5 3b
       -0.002446191 -0.014538581 0.0051658023 0.007505489
000390 27 64 b4 3b 0c 8d 28 3c 6b 2c 46 bb 00 4e b9 3c
       0.005505103 0.010287534 -0.0030238878 0.022620201
0003a0 5d d0 77 bc d7 98 0b 3d 72 bf df 3c 28 4e 27 3b
       -0.015125361 0.034081306 0.027312968 0.0025528762
0003b0 1c 29 20 3c 94 62 a9 3c 45 43 82 3c be c5 85 3b
       0.009775426 0.020676889 0.015901217 0.0040824106
0003c0 2b 84 36 3b ec 2e f3 3b 50 4b f6 bb 33 07 93 bb
       0.0027849774 0.007421365 -0.007516302 -0.004486942
0003d0 68 81 60 3c 33 46 28 bc 67 7d 8b bb b8 bc 21 3c
       0.013702728 -0.010270643 -0.0042568925 0.009871654
0003e0 32 b7 a5 3b 60 d0 74 bc f6 ca e4 3a 87 df 1e 3c
       0.005057239 -0.014942259 0.0017455507 0.009696848
0003f0 84 1a 73 3b ef 82 92 bb ac 6e 95 ba e3 6d ac bc
       0.0037094662 -0.004471175 -0.0011400781 -0.021048492

bias f4 [20]
000000 48 a5 91 bc e7 cb 14 3c 5b 9a 3e bc 08 16 dd bb
       -0.017779008 0.009081817 -0.011633481 -0.006747011
000010 70 20 b0 bc 96 c8 74 bb 90 ea b3 3c d2 1b be 3b
       -0.021499842 -0.0037351004 0.021962434 0.0058016563
000020 41 76 f2 3b 0b ba 18 3c 4f 20 57 3c 70 30 88 3c
       0.007399351 0.0093217 0.013130262 0.01662466
000030 3c d9 98 bc 1f cf 33 bc 72 d0 3d 3c bf f8 88 3c
       -0.018658273 -0.0109746745 0.011585342 0.016720174
000040 d0 4b 4b 3c 25 15 47 bc de bf 62 3c 68 52 7c 3c
       0.012408212 -0.012151037 0.01383969 0.015400507

weight f4 [20, 20]
000000 b9 e6 11 3b 14 aa de bb 58 f5 ba 3b 44 d1 a9 3c
       0.0022262766 -0.0067951772 0.005705517 0.020729668
000010 d5 3d e6 bc 87 3e 29 bc c2 c7 b7 3c 60 36 1a 3b
       -0.028105656 -0.010329849 0.02243412 0.0023530945
000020 fc fe 71 39 68 d5 65 3c bd 00 7d 3c 26 2b b3 bc
       0.0002307854 0.014027931 0.015442071 -0.02187116
000030 9b 69 3f 3b 95 3b c1 3a 33 8d ba bc b6 9f 2b 3c
       0.0029207233 0.0014742488 -0.022772407 0.01047509
000040 cd 14 ee 3b 44 27 a3 bc 16 5b 7c 3c cd c1 ae ba
       0.0072656632 -0.019916184 0.015402576 -0.0013332904
000050 6d b3 35 bc 44 73 bd 3a b3 21 a1 bb b5 cf 91 bc
       -0.011090142 0.0014453907 -0.0049173473 -0.017799238
000060 a6 dd 87 3b 15 17 75 ba a3 e1 a3 bc ec 37 28 3d
       0.0041462956 -0.0009349448 -0.020005053 0.041068956
000070 0c d8 33 3c 64 77 8d bb ad 32 2d bd e6 79 07 bb
       0.010976803 -0.004317211 -0.042284656 -0.0020672022
000080 5f 51 bb 3c 74 e8 b6 bc 14 bd ab bc 7d 6b 95 bb
       0.02286595 -0.02232764 -0.020964183 -0.0045599327
000090 89 65 35 39 db 26 c5 3c b2 85 14 3c 4b 57 62 3b
       0.0001729933 0.02406638 0.009065079 0.0034536894
0000a0 42 87 bc bc cb 4f 08 bb 17 3b 98 bb 7d 64 77 bb
       -0.023013715 -0.0020799513 -0.004645716 -0.0037749105
0000b0 25 b7 a9 3b 86 54 02 bc ad e5 20 3c d5 cd b3 bb
       0.005179303 -0.007954722 0.009820384 -0.0054871836
0000c0 b5 80 08 ba 53 65 e4 3b 1e 4d 82 bb cc 9e 8d 3b
       -0.0005207167 0.0069700866 -0.0039764782 0.0043219086
0000d0 22 e6 b0 bb 6e fa 87 bb c4 4d fd 3b e1 b3 98 3c
       -0.0053985277 -0.0041497266 0.0077302177 0.01864046
0000e0 bc b3 e1 3b bf 38 ab bb aa 61 64 3c d8 4b 3b 3c
       0.006887881 -0.0052252705 0.013939301 0.011431657
0000f0 9b e5 15 3b 01 11 fa 3b 04 ca aa bc dc 67 b4 3b
       0.0022872451 0.0076314216 -0.020848282 0.005505545
000100 b2 6d c6 bc 52 8e 38 bc ff ab 3f 3c 4e 34 3a 3c
       -0.024222229 -0.011264401 0.011698722 0.0113650095
000110 f6 f7 4f bc 80 8c f3 3b 10 ef ca 3b c8 8b 08 bc
       -0.012693396 0.0074325204 0.0061930493 -0.008334108
000120 c0 40 6c bc 06 fd 03 3c d1 54 92 ba 3c ed 88 3a
       -0.0144197345 0.008055931 -0.0011164193 0.0010446678
000130 08 5e 6f 3b df ca c0 39 9d 6d e5 3b ac 04 38 3c
       0.0036524553 0.00036772244 0.0070015923 0.011231583
000140 8d 77 93 3c 71 1e e4 bb 8a bf 0c 3c 4d 49 8b bc
       0.018001342 -0.0069616367 0.008590588 -0.017002726
000150 3c 3f 8c 3c fd ce 0e 3b 11 0d 24 bc 3a 4b 7a bc
       0.017119996 0.0021790855 -0.010012881 -0.0152767245
000160 ae 90 b4 ba 2d 11 91 bb d0 65 96 bb 69 9f fe 3b
       -0.0013776028 -0.0044270963 -0.0045897737 0.007770468
000170 83 a2 53 3c 0b 2a be 3a dc ad 68 bc 98 a6 2a bc
       0.012917164 0.0014508379 -0.014201608 -0.010415696
000180 a6 ad 2b bc 9d ed 22 bb fd 7c d7 bb db d8 fa bb
       -0.010478413 -0.0024860867 -0.006576179 -0.0076552457
000190 d6 b3 fe bb ef 3b 40 bc 31 da fa 3b 4d 1c 37 3c
       -0.007772903 -0.011733039 0.007655405 0.011176181
0001a0 66 c7 b9 bc 7f 82 b1 bb 86 dd 9f bb 1d 82 1e bc
       -0.022678088 -0.0054171677 -0.0048787026 -0.009674576
0001b0 39 82 44 bc a2 d3 25 3c f1 39 46 3c a9 c2 21 3c
       -0.011993938 0.010121258 0.012098775 0.009873071
0001c0 e6 ff 36 3c 67 2d 24 bc 3b cc 75 3d 29 5b 2e bc
       0.011169409 -0.01002059 0.060009222 -0.010641851
0001d0 b6 07 06 bc 76 65 94 bd f1 ea 04 3c d8 32 94 3a
       -0.008180549 -0.07245915 0.008112655 0.0011306657
0001e0 db 59 97 bc 63 5d 56 3c b8 16 85 3c 7b 7a ba bb
       -0.018475464 0.013083789 0.016246185 -0.0056908703
0001f0 b4 2d 87 3b ea 06 77 3c 6a 5a 2a 3c 71 55 da 3b
       0.0041253213 0.015077332 0.010397533 0.0066630174
000200 38 7a f0 3b 13 9d 3c 3c e9 fb 56 3c a9 b5 75 3c
       0.0073387884 0.011512059 0.0131215835 0.014996924
000210 96 3d 69 3c 8f 33 a6 bc 7f 52 4d 3c 01 7f 34 bc
       0.014235875 -0.020288257 0.012531876 -0.011016608
000220 c7 c1 2d 3c 75 12 93 bc b8 ae 1d 3c ae a4 05 3c
       0.010605282 -0.017953137 0.009624176 0.0081569385
000230 af cb 9d bc ab 20 d5 39 9e 00 f4 ba fa 56 c4 3c
       -0.019262163 0.00040650865 -0.0018615907 0.023967255
000240 af 0c 43 3c 94 65 9b 3c a2 d2 84 3b 2f 00 b5 3b
       0.0119048795 0.018969335 0.0040534297 0.0055237035
000250 91 16 a8 3c b2 3e 82 3b 4c e0 de b9 e5 7a fe 3b
       0.020518573 0.003974759 -0.00042510254 0.007766115
000260 24 e1 fe bb b7 bd f1 bb d7 f2 0a 3c 1b 50 de 3b
       -0.0077783037 -0.007377352 0.008480749 0.0067844517
000270 df dd a7 3c b8 94 5c 3a cc b5 1f 3c 8e c0 23 3b
       0.020491539 0.0008414495 0.009747934 0.0024986598
000280 5c ff 2e 3c 13 43 56 bb b3 67 bb 3c c6 c4 a6 3c
       0.010681 -0.0032693788 0.022876596 0.0203575
000290 f2 dd f3 bb 58 fb a7 bc 55 f6 66 bc 71 dd b0 ba
       -0.0074422294 -0.020505592 -0.014096816 -0.0013493729
0002a0 3b 16 ce bc 88 41 21 bc d8 f5 22 bc da f0 f9 bb
       -0.025157085 -0.009842284 -0.009946309 -0.0076275887
0002b0 c4 b0 a7 bc 50 86 a5 bc ef 57 0d bd 02 59 5c bc
       -0.02047003 -0.020205647 -0.034507688 -0.0134489555
0002c0 56 bc 29 3d 83 33 90 3c 06 72 7a bc c2 a9 bf bc
       0.041439377 0.017602688 -0.015285974 -0.023396377
0002d0 93 e0 89 bc ac d4 0e 3c 10 b7 d7 bb 68 c6 16 bc
       -0.016830718 0.008717697 -0.006583102 -0.009202577
0002e0 96 0b 45 bb 06 2c f2 bb ca 44 69 3c 07 99 fe 38
       -0.003006672 -0.007390502 0.014237592 0.000121401674
0002f0 ec 0d b6 bb 02 4e a4 3a 13 89 df ba 50 03 54 3b
       -0.005555859 0.0012535455 -0.0017054401 0.0032350607
000300 5c 80 11 bc 9b 05 39 3b e7 e4 61 3b 23 fb 6a bb
       -0.008880701 0.00282321 0.0034468712 -0.0035855256
000310 78 11 2f 3b 59 31 f7 ba cb 07 94 3c 75 90 9f bb
       0.0026713293 -0.0018859311 0.018070122 -0.0048695155
000320 af 84 2a bb 7d e9 87 bb 68 36 91 3c c9 77 39 bc
       -0.0026019027 -0.004147707 0.017726138 -0.011320063
000330 4d ee 3e 3c 59 f0 c4 3b 37 3f b3 bb 0f bc 96 bb
       0.011653495 0.006010097 -0.0054701823 -0.004600055
000340 a4 6b 7d 3a c0 1c 1f bc f1 c9 8a bb 64 55 f0 3b
       0.0009667224 -0.009711444 -0.004235499 0.007334398
000350 8b 96 42 3c 0b 9b ee 3a 56 98 1b ba b7 8b 9a bc
       0.011876713 0.0018204165 -0.00059354806 -0.01886545
000360 e9 99 e4 bb a1 8b 04 3b a8 8b 92 bc a6 2f c9 3b
       -0.0069763553 0.0020224827 -0.017888859 0.0061397133
000370 49 5d 74 3c 81 6a 28 b7 1e 28 e1 ba ba a5 d7 bb
       0.014914819 -1.0038378e-05 -0.0017178094 -0.0065810354
000380 65 8f f7 bb 33 b3 65 3b 13 80 86 bb 94 94 09 3b
       -0.0075549358 0.0035049438 -0.004104623 0.00209931
000390 e9 c5 c1 bb 51 35 d0 39 7b 3d 8e 3b 98 dc 53 bb
       -0.0059134853 0.00039712575 0.004340825 -0.003232753
0003a0 55 b8 11 bb eb 17 01 3c 7e 9a c8 bb a7 31 cb bb
       -0.0022235115 0.007879238 -0.0061219325 -0.0062009874
0003b0 36 17 e2 bb ea cd 87 3b 43 99 08 bc 66 87 6b bc
       -0.0068997396 0.00414442 -0.008337322 -0.014375543
0003c0 ba c4 01 ba d2 5c f3 bc 21 1c 16 3d be 97 31 bc
       -0.0004950274 -0.029707346 0.03664792 -0.010839401
0003d0 16 d8 57 bc ac 88 dc bb 2e 9e 62 3c 15 04 88 bc
       -0.0131740775 -0.0067301597 0.013831658 -0.016603509
0003e0 b3 fa 83 bb 3d 55 a6 b9 d2 e6 a2 3a 4f 32 a5 bc
       -0.0040276884 -0.00031725495 0.0012428409 -0.02016559
0003f0 55 fb 96 3c 26 a8 a0 3c c2 f8 70 bc 96 d0 bb ba
       0.018430391 0.01961143 -0.014707746 -0.0014329131

bias f4 [20]
000000 64 19 57 bc f6 52 9b bc c0 84 bd ba 19 5c 0a 3c
       -0.013128612 -0.018960457 -0.0014459118 0.008444809
000010 78 12 77 3b d0 24 81 3c f1 64 81 3b 9f 03 a4 3b
       0.0037700217 0.015764624 0.0039488007 0.0050053145
000020 e4 07 27 bc 4c d6 b5 3c fc ac f2 bb 47 4d a5 bc
       -0.010194752 0.022196911 -0.0074058753 -0.02017845
000030 ba 48 9c 3b 2b 73 be 3c 3d f5 45 bc 2d 86 82 3b
       0.004769412 0.023248276 -0.012082395 0.00398328
000040 b5 cc 6c 3c d7 a0 04 3c a7 18 90 3c 21 eb 33 bc
       0.014453103 0.008094988 0.01758988 -0.010981352

weight f4 [2, 20]
000000 cf d8 ea bd 3a 82 9f bc c8 bd 23 be 93 52 2d be
       -0.11467134 -0.019471277 -0.15990365 -0.16926031
000010 ac 44 2d 3e 79 83 18 bf ff 3f 34 be 0d 16 24 be
       0.16920727 -0.5957561 -0.17602538 -0.16024037
000020 13 e0 02 3f c2 95 1c be 40 35 25 3e be 58 17 3e
       0.5112316 -0.15291503 0.16133595 0.14779946
000030 61 08 9b 3d af d5 1c be 2f 29 82 be ec c5 1b 3e
       0.075699575 -0.15315889 -0.25422046 0.1521222
000040 36 3e 08 be f3 a0 1e 3e e5 72 18 be 20 19 1f 3e
       -0.13304982 0.15491085 -0.14887579 0.15536928
000050 f5 84 c3 be af a5 c3 3e b4 00 c3 be 26 d8 c2 be
       -0.38187376 0.38212344 -0.38086474 -0.38055533
000060 90 48 c0 3e 3e 16 67 be 7b 6c c1 be b7 eb c2 be
       0.3755536 -0.22567078 -0.37778077 -0.3807046
000070 da 2b 97 3e 34 3a bd be 60 7c bf 3e 5f 32 c1 3e
       0.29525644 -0.36958468 0.37399578 0.37733743
000080 e6 65 c4 3e e3 18 c0 be 9f a9 b9 be 99 06 bc 3e
       0.38358992 -0.37518987 -0.36262223 0.36723784
000090 63 f5 bf be a2 d6 bb 3e 4c 54 bf be 3f 94 c2 3e
       -0.37491903 0.3668719 -0.37369 0.38003728

bias f4 [2]
000000 8c 96 15 be ee a1 af be
       -0.1460821 -0.3430323
