_notebooks/celegans_pos_inr2.pt (torch, 13927 bytes, 12 tensors)

weight f4 [20, 1]
-0.74636036 -0.34955522 0.6704421 -0.9126262 -0.21297704 0.1105721 -0.8078846 -0.21933636
-0.146617 0.75815296 -0.28745317 0.6687025 0.18289156 -0.118853405 0.9324417 0.2151812
0.7165145 -0.7902615 -0.09758894 -1.0235511
00000000: 7911 3fbf e7f8 b2be 18a2 2b3f dfa1 69bf
00000010: a716 5abe a073 e23d 86d1 4ebf b699 60be
00000020: c422 16be 5016 423f 102d 93be 1630 2b3f
00000030: ed47 3b3e 6a69 f3bd 80b4 6e3f 7658 5c3e
00000040: 7f6d 373f 944e 4abf b6dc c7bd b903 83bf

bias f4 [20]
0.8469982 -0.70042044 -0.30646375 0.63547885 -0.13650289 -0.6608713 -0.5581638 -0.31705165
-0.32895592 -0.81376624 -0.5586132 -0.4541994 -0.5178803 -0.41162717 0.25112548 0.042864848
-0.23197237 -0.96493655 -0.3071288 0.016337913
00000000: e0d4 583f c14e 33bf d1e8 9cbe beae 223f
00000010: 6ac7 0bbe dd2e 29bf d3e3 0ebf 9854 a2be
00000020: e96c a8be fc52 50bf 4601 0fbf d38c e8be
00000030: ce93 04bf ccc0 d2be 8593 803e 0d93 2f3d
00000040: 2a8a 6dbe 1506 77bf fc3f 9dbe 16d7 853c

weight f4 [20, 20]
0.009928811 -0.0043072714 0.00021136826 -0.022564089 -0.0044960226 -0.009015029 0.012519724 0.0018756159
0.0053112796 -0.0059947134 0.013303636 0.039723802 -0.021822218 -0.013129475 0.005215489 0.011527599
0.01993631 0.00054871134 -0.0011315116 0.00032941854 -0.0058050975 0.011798672 -0.021532776 0.01494751
5.3654803e-05 0.016758498 0.023341265 0.007051005 0.0059742467 -0.009179718 0.0048737074 -0.0020578124
0.0052351826 -0.019593783 0.01985295 0.010690983 0.0014241019 -0.003350048 0.024060296 0.00027684093
-0.018445281 -0.008139349 -0.017729102 0.006034288 0.0026715116 -0.002888467 -0.032094784 -0.014729037
-0.021786427 -0.015074206 -0.011633322 0.014591661 0.018018713 0.0024249253 -0.0014435647 0.0026148802
0.02009771 -0.0030866489 -0.0037415875 -0.02038053 -0.014076153 -0.0020385683 -0.010336859 -0.014272575
-0.019546498 -0.008724345 0.012671519 0.0048746136 0.0012838552 0.0060300888 -0.019243337 0.004190599
-0.000851908 -0.023693101 -0.03398245 -0.020358685 0.017384253 -0.0027040245 -0.0030300359 0.008322668
0.01146128 0.02442977 0.0027305624 0.011703281 -0.026768522 -0.0036417805 0.023411699 -0.005576369
-0.0042984295 0.0012489164 -0.0139960125 0.0244134 0.0032019978 0.012453662 0.016877642 -0.00037455672
0.011259205 -0.005752981 0.0123867085 -0.006553927 0.004462069 -0.01828298 0.034604993 0.02237602
0.0075419964 0.0069928 0.020567285 -0.010485582 -0.01761402 -0.0019352196 0.0038857316 -0.03275299
0.008835846 0.012940892 -0.022441238 -0.00856263 -0.0029277946 0.008175538 -0.004296775 0.045009088
-0.021834007 -0.014480765 -0.0052310303 0.022241665 0.0061211167 0.014467237 0.003390697 0.009315606
0.02629429 -0.0061995583 0.0023040557 -0.011697747 -0.015240084 -0.025551496 -0.009767556 0.012798519
0.029450694 0.008338976 0.014204023 -0.006623374 0.005418868 -0.0041925935 0.021955464 0.023895454
0.017121593 0.011760828 -0.022148669 0.009643607 0.006968985 0.014184093 -0.011923156 0.012881478
-0.002611684 0.011333455 -0.0065736077 -0.0042685815 -0.004851497 0.0035057382 0.008876582 -0.0034950285
0.0104494365 0.0016636951 -0.024003796 -0.009756761 -0.005279953 0.0031555933 0.02356522 -0.013553738
0.0038373105 -0.008816426 0.0020001663 0.0047116945 0.0064820494 0.014439042 0.040690675 -0.015385354
0.0058949585 0.0059401924 -0.011440517 -0.060801134 0.0041679307 0.001688862 0.009464481 -0.010232112
-0.010972962 -0.0029197051 -0.006910115 -0.012241574 0.011966739 -0.00045714312 -0.01210308 -0.003024339
-0.01972437 -0.017377857 0.03445164 -0.011531182 0.009153343 -0.0060927817 0.019971965 0.0040632254
-0.012249026 -0.026711509 -0.0052819587 0.0027925237 0.007738781 0.0151502555 0.0011767027 -0.015168356
-0.014882904 0.026985222 0.014750705 -0.01592382 0.01632649 -0.0029889103 -0.04149191 -0.0014295434
-0.0087035885 0.008995847 0.029043285 0.05173279 -0.009764788 -0.00573723 -0.0025652149 0.028880268
-0.010340711 -0.010574284 0.0026954492 0.02035287 -0.013688006 -0.0023126178 -0.017536148 -0.01050255
-0.01489714 0.008508096 -0.008940221 -5.390665e-06 -0.012183099 0.01978858 0.020442609 0.015581852
-0.03723483 -0.017062405 0.00671204 0.017075162 -0.005132158 0.01437504 -0.008256095 0.00048231953
0.0071164425 0.014727866 0.0071106227 -0.0146888755 -0.009070418 -0.006970015 0.015488695 0.0061034095
00000000: 74ac 223c 0324 8dbb bca2 5d39 53d8 b8bc
00000010: 5f53 93bb c6b3 13bc 871f 4d3c 3ad7 f53a
00000020: 3e0a ae3b 4d6f c4bb 7ef7 593c 6db5 223d
00000030: 82c4 b2bc 021d 57bc b1e6 aa3b 41de 3c3c
00000040: 7951 a33c 65d7 0f3a 3b4f 94ba cfb5 ac39
00000050: b038 bebb 384f 413c 8165 b0bc 67e6 743c
00000060: 680b 6138 1e49 893c 2e36 bf3c 1e0c e73b
00000070: 9dc3 c33b 8766 16bc 9fb3 9f3b 5ddc 06bb
00000080: e58b ab3b 2483 a0bc a7a2 a23c 3c29 2f3c
00000090: eea8 ba3a 7b8c 5bbb 191a c53c f624 9139
000000a0: 8f1a 97bc e75a 05bc 9f3c 91bc 47bb c53b
000000b0: 8714 2f3b 6f4c 3dbb d275 03bd 0f52 71bc
000000c0: 7379 b2bc cdf9 76bc b099 3ebc dd11 6f3c
000000d0: fb9b 933c 7feb 1e3b fe35 bdba 695e 2b3b
000000e0: f4a3 a43c 6049 4abb 6c35 75bb 12f5 a6bc
000000f0: aa9f 66bc 8099 05bb ee5b 29bc 85d7 69bc
00000100: fa1f a0bc 8ef0 0ebc 349c 4f3c 39bb 9f3b
00000110: 0847 a83a 0d98 c53b 34a4 9dbc 4b51 893b
00000120: 9452 5fba 0918 c2bc 2e31 0bbd 42c7 a6bc
00000130: 6c69 8e3c 0136 31bb 9193 46bb cd5b 083c
00000140: 18c8 3b3c f120 c83c 3cf3 323b 1ebf 3f3c
00000150: a949 dbbc f0aa 6ebb e4c9 bf3c f9b9 b6bb
00000160: d7d9 8cbb aeb2 a33a 884f 65bc 9cfe c73c
00000170: 9cd8 513b 720a 4c3c fb42 8a3c 2760 c4b9
00000180: 8778 383c 8183 bcbb 9ff1 4a3c 53c2 d6bb
00000190: 8c36 923b 30c6 95bc f7bd 0d3d ea4d b73c
000001a0: da22 f73b dc23 e53b b97c a83c b8cb 2bbc
000001b0: 474b 90bc 32a7 fdba c2a7 7e3b 0028 06bd
000001c0: 39c4 103c 0906 543c b0d6 b7bc 464a 0cbc
000001d0: 3ee0 3fbb b1f2 053c f6cb 8cbb 735b 383d
000001e0: 3bdd b2bc bb40 6dbc 1069 abbb 2734 b63c
000001f0: a693 c83b fd07 6d3c 7536 5e3b 7ca0 183c
00000200: 1f67 d73c aa25 cbbb a4ff 163b e8a7 3fbc
00000210: 8cb1 79bc 5f51 d1bc 1908 20bc e1b0 513c
00000220: 9542 f13c 33a0 083c feb7 683c e308 d9bb
00000230: c290 b13b 0662 89bb f2db b33c 66c0 c33c
00000240: 9542 8c3c 7db0 403c 2071 b5bc 3800 1e3c
00000250: 155c e43b 6664 683c 5759 43bc d60c 533c
00000260: c928 2bbb f5af 393c 6b67 d7bb 75df 8bbb
00000270: 4ef9 9ebb 87c0 653b 156f 113c d90c 65bb
00000280: 1d34 2b3c 5810 da3a 9ca3 c4bc d2da 1fbc
00000290: 7503 adbb 12ce 4e3b d90b c13c 7f10 5ebc
000002a0: 637b 7b3b c572 10bc 3915 033b 8f64 9a3b
000002b0: 5f67 d43b bb91 6c3c 44ab 263d da12 7cbc
000002c0: 7f2a c13b f2a5 c23b 0271 3bbc 9c0a 79bd
000002d0: 2393 883b ce5c dd3a e910 1b3c 97a4 27bc
000002e0: f0c7 33bc 8658 3fbb 3f6e e2bb e290 48bc
000002f0: 2410 443c b6ac efb9 ff4b 46bc fd33 46bb
00000300: 0195 a1bc 025c 8ebc 2a1d 0d3d 48ed 3cbc
00000310: e7f7 153c f5a5 c7bb 3f9c a33c ce24 853b
00000320: 24b0 48bc 18d2 dabc 4814 adbb c602 373b
00000330: 9a95 fd3b c738 783c 973b 9a3a b284 78bc
00000340: 6cd7 73bc 1d10 dd3c f1ac 713c ac72 82bc
00000350: 22bf 853c 98e1 43bb 6cf3 29bd 845f bbba
00000360: 7f99 0ebc 5163 133c 2fec ed3c c3e5 533d
00000370: 7dfc 1fbc 60ff bbbb 2a1d 28bb 5096 ec3c
00000380: 166c 29bc c33f 2dbc 22a6 303b 10bb a63c
00000390: a943 60bc 4a8f 17bb f8a7 8fbc e312 2cbc
000003a0: 2213 74bc 8b65 0b3c 017a 12bc 76e1 b4b6
000003b0: 9f9b 47bc a91b a23c 4277 a73c 064b 7f3c
000003c0: 8d83 18bd 75c6 8bbc acf0 db3b 36e1 8b3c
000003d0: a92b a8bb 4a85 6b3c 9344 07bc d5df fc39
000003e0: 0c31 e93b 264d 713c 3a00 e93b 9ca9 70bc
000003f0: 179c 14bc b964 e4bb 4cc4 7d3c 1cff c73b

bias f4 [20]
-0.0077406387 0.0064327987 -0.017953873 0.0066945795 -0.0024960598 0.009976705 0.019010693 0.008544574
-0.009780336 0.015113718 0.018225983 -0.003499275 0.018811844 -0.007391274 -0.011369312 0.010543939
-0.0110945515 0.0030949328 -0.029035537 -0.017047413
00000000: 2fa5 fdbb 3aca d23b 0014 93bc 345e db3b
00000010: ef94 23bb 5575 233c 50bc 9b3c 8afe 0b3c
00000020: b43d 20bc 879f 773c a84e 953c 1854 65bb
00000030: 4c1b 9a3c 8032 f2bb 5a46 3abc 7cc0 2c3c
00000040: ecc5 35bc 5bd4 4a3b efdb edbc 04a7 8bbc

weight f4 [20, 20]
0.0065531787 -0.008089119 -0.0027475366 -0.0119508235 -0.004266992 -0.020225842 -0.024146646 -0.022512209
0.021303607 0.0063468865 -0.017711606 -0.0026752139 -0.018182768 0.0113683045 -0.029950703 -0.027662199
-0.0044496516 0.006884989 0.0064531774 0.008079194 0.003937571 0.028810438 -0.009650026 -0.04764176
0.0022987959 -0.024452405 0.014869917 -0.0099836495 -0.011697989 0.0148464665 0.022061368 -0.028495982
-0.0053478507 -0.013804684 -0.022082342 0.006421202 0.024349218 0.022510696 0.002646302 0.011147414
-0.029853834 -0.010165501 0.0021494098 0.024781717 0.007888449 0.056406934 -0.008213734 0.008776289
0.010922866 0.0039459406 0.00039277846 0.0130757345 -0.0100329295 -0.017444719 -0.008015122 0.022213265
0.011781953 0.0073005245 -0.022323517 -0.008913666 -0.016624298 -0.020424508 0.026181094 0.0054116473
0.0092684245 -0.0083789285 -0.0013871514 -0.0035594099 0.019567125 -0.008054307 0.006198386 -0.016395532
-0.012619589 -0.0117476545 0.0060072998 0.00052616256 -0.00950239 -0.009058551 -0.0139270015 0.006843709
-0.031788122 0.002254305 -0.0004756393 -0.00460107 0.0012267664 0.024831852 -0.0044433745 0.0186756
-0.012785812 -0.025848696 -0.018263211 -0.018060293 -0.002220147 0.00037442107 0.007248649 0.008104294
-0.007810232 -0.016840724 0.009058891 0.04085428 -0.016750567 0.014195922 -0.021292489 0.03477051
0.01450297 -0.0008141658 -0.0023243122 -0.014002056 -0.027043838 0.017586477 0.06628743 -0.016297052
0.019574456 -0.011753947 0.012513206 0.011653832 -0.008063013 0.02557779 -0.015381833 -0.0039713583
0.012803449 -0.015239899 -0.014619298 -0.01644055 -0.011188792 0.016995605 -0.0070055923 -0.014516554
-0.014356654 0.021088984 0.014682607 0.009683495 -0.017248707 0.016373001 0.006199658 -0.0015744652
-0.015227492 -0.016048025 -0.0056643016 0.011460919 0.015339509 0.020730209 -0.00875155 0.02227504
-0.0015309808 -0.021666126 0.0021768615 0.017360697 0.018945994 0.0019152651 -0.03086438 0.004551657
0.01799368 -0.010957661 -0.01473004 0.016060455 -0.014031577 0.0038759268 0.023171125 0.012303432
-0.029232014 0.008418126 -0.023999175 0.002271638 -0.021711253 0.020583903 0.010068699 0.0005592626
-0.002940782 -0.00015049217 -0.0065087033 -0.004130371 -0.0035108477 -0.004059492 -0.0039884527 -0.004410887
-0.00080857804 -0.0028888253 0.029537903 -0.016785713 0.005602129 0.009990047 0.012457033 0.017622944
-0.007309524 0.008416884 -0.013391068 -0.0031216594 0.016036052 -0.011502032 -0.020078123 -0.015033492
-0.03004316 -0.0031290236 0.025726283 -0.006333979 0.02235769 -0.02907423 -0.027825816 0.00904397
0.00439553 -0.0077173207 -0.023125416 -0.018247582 -0.02170961 0.020453207 -0.019311309 0.004075298
0.024673302 0.0023859616 0.013350537 -0.0018167794 -0.008336785 0.0016227241 0.008753218 -0.0012924902
-0.0020959002 0.008969313 -0.016468542 -0.018054893 0.006068285 0.014847116 -0.0023524372 0.0005249046
-0.0016667944 0.038364407 -0.023921791 -0.0028030602 -0.0046519362 0.021180732 0.0374694 -0.017356705
0.0092691425 -0.006859215 -0.0044434587 0.012609512 -0.041825812 0.00021752519 -0.013568149 0.015495366
-0.0145176 -0.0022133999 0.025737584 0.010713668 0.026159553 0.015986506 -0.001916564 -0.022482168
-0.0022886577 0.006161436 -0.020719374 0.008024434 -0.017549468 0.018883534 0.0057260804 -0.0028779109
00000000: 0cbc d63b 3988 04bc 0410 34bb 63cd 43bc
00000010: 20d2 8bbb aab0 a5bc 30cf c5bc 866b b8bc
00000020: e784 ae3c 8bf9 cf3b ee17 91bc a452 2fbb
00000030: 07f4 94bc 2042 3a3c 2d5b f5bc d69b e2bc
00000040: 62ce 91bb 799b e13b 2d75 d33b 995e 043c
00000050: bd06 813b de03 ec3c 251b 1ebc 0224 43bd
00000060: 65a7 163b 6950 c8bc f4a0 733c 7692 23bc
00000070: eca8 3fbc 983e 733c 0bba b43c 6870 e9bc
00000080: 063d afbb 0b2d 62bc 07e6 b4bc f268 d23b
00000090: 0378 c73c 5a68 b83c 956d 2d3b a5a3 363c
000000a0: 0790 f4bc 348d 26bc 1ddd 0c3b 0703 cb3c
000000b0: 8e3e 013c f50a 673d e692 06bc 6dca 0f3c
000000c0: d2f5 323c f34c 813b d5ed cd39 9b3b 563c
000000d0: 2861 24bc 3ae8 8ebc dc51 03bc 98f8 b53c
000000e0: 1809 413c 3d39 ef3b cfdf b6bc a00a 12bc
000000f0: ae2f 88bc 4c51 a7bc bc79 d63c 3054 b13b
00000100: 97da 173c c647 09bc 14d1 b5ba fd44 69bb
00000110: 3c4b a03c 36f6 03bc d51b cb3b ec4f 86bc
00000120: 65c2 4ebc 3c79 40bc e2d8 c43b 2cee 093a
00000130: eaaf 1bbc 516a 14bc 142e 64bc 3141 e03b
00000140: 4334 02bd f6bc 133b 3a5f f9b9 93c4 96bb
00000150: 73cb a03a 2b6c cb3c ba99 91bb 92fd 983c
00000160: 957b 51bc a5c0 d3bc bb9c 95bc 2ef3 93bc
00000170: e37f 11bb f24d c439 1386 ed3b dfc7 043c
00000180: faec ffbb 8ff5 89bc be6b 143c d156 273d
00000190: 7c38 89bc 0396 683c 966d aebc 866b 0e3d
000001a0: dd9d 6d3c be6d 55ba 7d53 18bb e168 65bc
000001b0: 0a8b ddbc 8411 903c b4c1 873d 6581 85bc
000001c0: 9c5a a03c a093 40bc 3104 4d3c b7ef 3e3c
000001d0: ba1a 04bc 8388 d13c 1504 7cbc 2b22 82bb
000001e0: 8fc5 513c c5b0 79bc c885 6fbc 55ae 86bc
000001f0: 3251 37bc 5e3a 8b3c 2b8f e5bb d7d6 6dbc
00000200: 2c38 6bbc cec2 ac3c 518f 703c 86a7 1e3c
00000210: 294d 8dbc ac20 863c 8026 cb3b 495e ceba
00000220: bb7c 79bc 2677 83bc 9b9b b9bb 94c6 3b3c
00000230: 9052 7b3c 66d2 a93c a962 0fbc 257a b63c
00000240: 31ab c8ba 297d b1bc ada9 0e3b 0538 8e3c
00000250: a134 9b3c a209 fb3a 4cd7 fcbc 1126 953b
00000260: 7b67 933c c387 33bc 4456 71bc 3791 833c
00000270: b3e4 65bc 4303 7e3b 5fd1 bd3c 5694 493c
00000280: fa77 efbc 2eec 093c eb99 c4bc c3df 143b
00000290: ccdb b1bc 939f a83c 2ff7 243c 7a9b 123a
000002a0: 23ba 40bb 6fcd 1db9 f646 d5bb 1058 87bb
000002b0: 4016 66bb 7d05 85bb 91b1 82bb 3489 90bb
000002c0: c1f6 53ba 7252 3dbb 79f9 f13c 3182 89bc
000002d0: 1092 b73b 4bad 233c 9518 4c3c fe5d 903c
000002e0: bb84 efbb f8e6 093c 3666 5bbc c194 4cbb
000002f0: 0a5e 833c 0573 3cbc e07a a4bc 094f 76bc
00000300: 131d f6bc 4e10 4dbb edbf d23c 448d cfbb
00000310: 7927 b73c 142d eebc f7f2 e3bc 292d 143c
00000320: 6108 903b 94e1 fcbb 8371 bdbc f47b 95bc
00000330: 5ad8 b1bc 7c8d a73c c032 9ebc 148a 853b
00000340: aa1f ca3c cb5d 1c3b 36bc 5a3c 0021 eeba
00000350: 0397 08bc 96b1 d43a a869 0f3c c668 a9ba
00000360: 5f5b 09bb 07f4 123c 09e9 86bc dbe7 93bc
00000370: 77d8 c63b 5141 733c 592b 1abb c099 093a
00000380: 5778 daba ff23 1d3d a2f7 c3bc 8cb3 37bb
00000390: 456f 98bb 3783 ad3c 8379 193d a62f 8ebc
000003a0: 9add 173c 44c3 e0bb 6f9a 91bb 2098 4e3c
000003b0: 8b51 2bbd 7917 6439 f14c 5ebc 47e0 7d3c
000003c0: 3adb 6dbc b00e 11bb a0d7 d23c 6188 2f3c
000003d0: 8f4c d63c 22f6 823c 3735 fbba 862c b8bc
000003e0: 4efd 15bb dfe5 c93b adbb a9bc ea78 033c
000003f0: e7c3 8fbc a4b1 9a3c d8a1 bb3b 559b 3cbb

bias f4 [20]
-0.018783556 0.016026994 -0.011924426 -0.02455662 -0.012696216 0.02588853 -0.005437966 0.0012210078
0.022601256 -0.015587412 -0.016129868 0.0052106213 -0.014883301 0.0024229216 -0.010387007 0.003247881
0.020166809 -0.0028628544 0.013891794 8.326233e-05
00000000: f9df 99bc 0b4b 833c ab5e 43bc f72a c9bc
00000010: ca03 50bc 2f14 d43c f730 b2bb 390a a03a
00000020: 4526 b93c 5862 7fbc c922 84bc dcbd aa3b
00000030: 17d9 73bc e1c9 1e3b 442e 2abc 67da 543b
00000040: dd34 a53c ba9e 3bbb 689a 633c 1f9d ae38

weight f4 [20, 20]
0.0032067911 -0.0047710966 -0.012635366 0.023977797 -2.7695694e-05 -0.020295788 0.009111053 -0.012937364
0.0022348932 0.013117358 -0.0009286654 0.01625983 0.0011484533 0.0049118185 0.017061234 -0.006117814
-0.011858069 -0.015074844 -0.0028937033 0.0005698794 -0.027069377 0.0070494125 -0.0038769383 -0.0093584955
-0.027780358 0.007822387 0.008461075 -0.0022598938 0.015118403 -0.0062590265 0.0052959733 -0.010372897
0.007025453 0.0016755107 -0.015171195 0.008558483 0.0019262013 -0.011115659 -0.0016840034 0.0044269175
-0.016312132 0.007107074 0.010927362 0.0043545826 -0.006909133 0.015202495 0.0027828857 -0.013250648
0.019655898 0.0027953263 0.003646902 -0.0042969235 -0.0065972703 -0.018409109 0.00022182838 0.010156645
-0.0051151128 0.011501111 0.019038288 0.006711094 0.0186778 0.0069525014 0.008373822 -0.02486651
-0.004211715 0.024764998 -0.012584934 -0.004272489 0.010574471 -0.029573746 -0.014611533 -1.6933089e-05
-0.018663818 0.009088629 -0.0078012175 -0.0010739306 -0.0035346772 0.015254229 0.006047545 -0.0065650204
-0.0050008614 -0.025526686 0.011627642 0.015378016 -0.0082722055 -0.01894241 0.012329427 0.00771027
0.006308028 0.000858926 -0.008311826 -0.044045046 -0.019015847 0.0068133743 0.03980501 -0.009698474
-0.026387308 0.00372241 0.030233502 -0.026335612 0.022189267 0.017345695 -0.011520482 -0.011775119
0.010536874 0.026174411 -0.017152987 0.00047866203 0.0045555076 -0.03190202 0.0030864396 -0.038853146
-0.002111147 0.014095562 0.0026714762 0.029190741 0.020090315 0.0388247 0.010059214 0.014350116
-0.0017479969 0.0051700366 -0.0032767528 0.0016299743 0.02769407 0.0015542831 -0.008034655 -0.00085543154
0.015249558 -0.030090433 -0.017588813 0.00030441536 -0.0010946913 -0.013265084 -0.01916759 -0.005819303
-0.0045609074 0.0048312224 0.012201949 0.017879287 -0.0006821785 -0.025156762 -0.0011136129 0.01389198
0.025155231 0.008834484 -0.023448516 -0.0021611068 0.022788905 0.040027317 -0.005282268 -0.030326715
-0.01321031 0.02561095 0.03521693 -0.0072415313 -0.014436384 -0.024680844 0.0067830025 0.0355493
0.0062954123 -0.006060764 0.0063566 0.028058546 -0.010313227 0.029473117 -0.006466772 0.00539034
-0.03645203 0.002972953 0.01665351 -0.010291261 -0.024020737 0.014437774 0.00053842814 -0.013695857
-0.018195994 0.023050973 -0.011570495 -0.01736991 -0.0082654515 0.02049967 -0.015156941 0.003594158
-0.009933246 0.015727539 -0.009467077 0.00012748381 0.0016406741 -0.024662444 -0.023266258 0.007379534
0.006069721 0.02443808 -0.02051328 -0.0008197572 0.029886317 -0.0031691042 0.003074822 0.0011867831
0.020462131 -0.020488843 -0.013692003 -0.012379189 -0.02453102 -0.0146320425 -0.012127708 -0.017845038
-0.012214461 -0.0012091536 -0.011357735 0.0061804634 0.008184198 -0.011635607 -0.004443814 -0.0117546925
0.027960744 -0.011477527 0.03856443 -0.00020255033 0.020594383 -0.00075718574 0.009384323 0.014295318
-0.010735486 -0.025567325 0.010348105 0.008575844 0.005847711 0.014799615 -0.001936047 0.02726899
-0.015297711 0.03621042 0.026575698 0.0066298926 0.01589542 0.019275531 0.017199421 0.008833718
0.007137978 0.00840359 -0.0051358338 -0.008674864 0.013374145 -0.011502351 -0.00018919884 0.004184925
0.0032817326 -0.016945628 0.0032122359 0.013423111 0.007897593 -0.00662434 -0.007202405 -0.018856771
00000000: 0729 523b dc56 9cbb 9104 4fbc 166d c43c
00000010: 0d54 e8b7 5a43 a6bc 8746 153c 3df7 53bc
00000020: 4977 123b 30ea 563c ae71 73ba 5633 853c
00000030: b387 963a 52f3 a03b 00c4 8b3c f277 c8bb
00000040: 5948 42bc 7afc 76bc 49a4 3dbb f663 153a
00000050: 99c0 ddbc c2fe e63b 3b14 7ebb 6054 19bc
00000060: a293 e3bc 7829 003c 52a0 0a3c ba1a 14bb
00000070: 2eb3 773c 8518 cdbb d889 ad3b 15f3 29bc
00000080: c535 e63b cf9c db3a 9b90 78bc e138 0c3c
00000090: 9778 fc3a 741e 36bc c7b9 dcba ad0f 913b
000000a0: 05a1 85bc 75e2 e83b ae08 333c e3b0 8e3b
000000b0: 0266 e2bb e313 793c 1361 363b 3f19 59bc
000000c0: 6805 a13c cb31 373b dd00 6f3b 35cd 8cbb
000000d0: ea2d d8bb b3ce 96bc 9a9a 6839 0f68 263c
000000e0: ad9c a7bb 286f 3c3c 2ff6 9b3c bde8 db3b
000000f0: 3002 993c cfd1 e33b 5b32 093c dab4 cbbc
00000100: 6d02 8abb f7df ca3c 0a31 4ebc 3c00 8cbb
00000110: 8c40 2d3c a444 f2bc 3665 6fbc 880b 8eb7
00000120: dde4 98bc 79e8 143c 5ba1 ffbb 22c3 8cba
00000130: 0ba6 67bb e0ec 793c 7c2a c63b 621f d7bb
00000140: 44de a3bb 571d d1bc de81 3e3c 13f4 7b3c
00000150: 2588 07bc 1d2d 9bbc 5d01 4a3c 6fa6 fc3b
00000160: 93b3 ce3b 8c29 613a 532e 08bc 9468 34bd
00000170: 1fc7 9bbc ba42 df3b 940a 233d 59e6 1ebc
00000180: 322a d8bc adf3 733b 40ac f73c c8bd d7bc
00000190: 44c6 b53c 8f18 8e3c 67c0 3cbc 6eec 40bc
000001a0: daa2 2c3c b86b d63c 6c84 8cbc eef4 fa39
000001b0: 5e46 953b b1ab 02bd dd45 4a3b 7a24 1fbd
000001c0: 2b5b 0abb 12f1 663c ef13 2f3b 6c21 ef3c
000001d0: 7294 a43c a606 1f3d 67cf 243c c01c 6b3c
000001e0: 0b1d e5ba 6969 a93b cabe 56bb dda4 d53a
000001f0: adde e23c 16b9 cb3a c9a3 03bc 0a3f 60ba
00000200: 48d9 793c 3680 f6bc 6a16 90bc f099 9f39
00000210: bf7b 8fba cb55 59bc 5a05 9dbc daaf bebb
00000220: aa73 95bb 3b4f 9e3b afea 473c 9577 923c
00000230: 39d4 32ba 8e15 cebc a6f6 91ba 309b 633c
00000240: 5812 ce3c 83be 103c 1a17 c0bc 5ba1 0dbb
00000250: ccaf ba3c aff3 233d e016 adbb bb6f f8bc
00000260: 0e70 58bc 0ece d13c a13f 103d 5e4a edbb
00000270: 9586 6cbc 7b2f cabc f343 de3b 259c 113d
00000280: bf49 ce3b 6099 c6bb 074b d03b 09db e53c
00000290: cff8 28bc 9b71 f13c 37e7 d3bb 73a1 b03b
000002a0: b94e 15bd e0d5 423b f16c 883c ad9c 28bc
000002b0: 23c7 c4bc 6a8c 6c3c 4d25 0d3a 9664 60bc
000002c0: c40f 95bc 65d5 bc3c 2c92 3dbc 574b 8ebc
000002d0: d16b 07bc edee a73c d154 78bc f78b 6b3b
000002e0: 0ebf 22bc 0ad7 803c cd1b 1bbc 2dad 0539
000002f0: e30b d73a e508 cabc e198 bebc 05d0 f13b
00000300: 83e4 c63b 5e32 c83c 770b a8bc f9e4 56ba
00000310: 26d4 f43c bfb0 4fbb f482 493b d58d 9b3a
00000320: 33a0 a73c 38d8 a7bc 6c54 60bc 15d2 4abc
00000330: 47f5 c8bc 3cbb 6fbc 4bb3 46bc c22f 92bc
00000340: 2a1f 48bc 767c 9eba cb15 3abc 7c85 ca3b
00000350: 0417 063c 46a3 3ebc 6a9d 91bb c196 40bc
00000360: ee0d e53c 3d0c 3cbc bcf5 1d3d b163 54b9
00000370: 8db5 a83c e07d 46ba b4c0 193c e936 6a3c
00000380: e4e3 2fbc 9172 d1bc 198b 293c b281 0c3c
00000390: 289e bf3b 167a 723c f5c2 fdba 3863 df3c
000003a0: 40a3 7abc 6151 143d 47b5 d93c 923f d93b
000003b0: 1d37 823c b8e7 9d3c cde5 8c3c 4cbb 103c
000003c0: b3e5 e93b 36af 093c 7f4a a8bb 0421 0ebc
000003d0: 3b1f 5b3c 5b74 3cbc ad63 46b9 b221 893b
000003e0: 5612 573b 8fd1 8abc 6084 523b 9cec 5b3c
000003f0: e864 013c fe10 d9bb 2702 ecbb 8479 9abc

bias f4 [20]
-0.02265074 0.010459624 -0.010644629 -0.0071719177 -0.022521181 -0.003079603 0.02245374 0.00925096
0.009387107 0.016706359 0.009692518 0.018200764 -0.017390883 -0.012210568 0.01508624 0.017731808
0.014379348 -0.012701011 0.018005008 0.016592933
00000000: 0b8e b9bc d85e 2b3c cf66 2ebc 6802 ebbb
00000010: 577e b8bc 2ad3 49bb e8f0 b73c 5791 173c
00000020: 61cc 193c c6db 883c 5ecd 1e3c c519 953c
00000030: 5377 8ebc d60e 48bc 472c 773c 4c42 913c
00000040: 5b97 6b3c e717 50bc 3d7f 933c e7ed 873c

weight f4 [20, 20]
0.003904227 -0.004256134 0.0052697933 0.02408673 -0.031991303 -0.004775599 0.025774514 0.010572218
-0.0037570365 0.01673225 0.015111168 -0.027461661 0.0086092185 -0.00159092 -0.030253401 0.010096078
0.010269683 -0.021055683 0.013554228 0.0025159027 -0.008693595 0.0052184802 0.005628429 -0.019984657
0.008550845 -0.0070286402 -0.017991217 0.047728047 0.015492442 -0.0005176954 -0.047540702 0.00050225476
0.019257255 -0.021445837 -0.014490485 -0.003754804 0.0037737878 0.020457502 0.009033492 0.002722289
-0.022998884 -0.0017563651 -0.0030844575 -0.0018461747 0.0072021284 -0.011568658 0.0068688737 6.98183e-05
-0.0020603554 0.006882985 -0.0036902172 0.0027680676 -0.0040275636 -0.0008143215 0.011684206 0.019724108
0.007899752 -0.015024911 0.014045384 0.013652823 0.0024069722 0.012448808 -0.021935703 0.0029470094
-0.020240651 -0.0052418034 0.010140836 0.012203713 -0.009925298 0.010639651 0.0038674881 -0.0064435164
-0.01996249 0.0056374436 0.0015011729 0.0011099083 0.00083635293 -0.0006736018 0.007306547 0.012879935
0.020015856 -0.009171526 0.010694833 -0.01718561 0.016732795 -0.0020255724 -0.011661614 -0.010960704
0.0025433176 -0.004328754 -0.005208446 0.010571741 0.013950544 0.0016084249 -0.021575484 -0.009939846
0.0023411 -0.0021519319 -0.0064163287 -0.0096777 -0.0078083756 -0.013367384 0.01088406 0.019625507
-0.023653863 -0.008918839 -0.0055379844 -0.009519553 -0.008024131 0.008850035 0.010166818 0.014372397
0.011796 -0.009401202 0.060045097 -0.014016458 -0.0092957625 -0.06617572 0.009176236 0.0005584371
-0.02122005 0.0102858 0.009723303 -0.008065904 -0.0022175119 0.018928925 0.011790246 0.0018032806
0.0036409989 0.011481938 0.0132776955 0.012279421 0.01559849 -0.023165813 0.007208811 -0.0077529373
0.010081712 -0.012789827 0.011830474 0.00932499 -0.019934162 -0.0033972051 -0.004561633 0.018012028
0.014368951 0.014720325 0.006723539 -0.0022095107 0.015444918 0.003840332 -0.0050878995 0.0019844081
-0.0066112676 -0.012649875 0.0033854444 0.006055643 0.020794585 0.0012800735 0.009418893 0.0015935603
0.009463513 -0.002273657 0.020131713 0.024112174 -0.0068717254 -0.016409334 -0.017675597 0.004670811
-0.024305912 -0.012889224 -0.016232837 -0.0054593515 -0.019525925 -0.019095924 -0.034187887 -0.011333829
0.040194396 0.01532232 -0.017052488 -0.024298271 -0.014347087 0.013531331 -0.0059319055 -0.009725897
-0.004655054 -0.0041703563 0.008411999 -0.0027190133 -0.0015945588 0.0029257687 -0.003973396 0.004980952
-0.009250564 0.004375847 0.0058320933 -0.0036411795 -0.0022351362 0.003126117 0.018308647 -0.00024548877
-0.0052917497 -0.0047547133 0.014426688 -0.011776141 0.010968229 0.007823313 -0.008370644 -0.00021374536
0.0023155902 -0.011403461 -0.0028206606 0.0016580623 0.0090424055 -0.001790854 -0.00022184916 -0.02112395
-0.0052604945 0.004676194 -0.018227872 0.008026098 0.019658558 0.0006170475 -0.0064454856 -0.0073159933
-0.0070967185 0.005878449 0.00034706324 0.0054075243 -0.004326376 0.0025403246 0.0044753165 0.0021591976
-0.0038853092 0.008131293 -0.00396722 -0.006274972 -0.00062257994 0.004900533 -0.0066242944 -0.013989608
-0.0038291505 -0.031200506 0.03710337 -0.01182218 -0.012392078 -0.008139491 0.011557599 -0.01105965
-0.003046695 0.004700281 -0.004169273 -0.018615218 0.019020746 0.02403495 -0.012073398 -0.0025108384
00000000: 0fde 7f3b 0a77 8bbb 3bae ac3b 8951 c53c
00000010: 5009 03bd a17c 9cbb 1325 d33c 1937 2d3c
00000020: 9d38 76bb 1212 893c d594 773c 47f7 e0bc
00000030: ae0d 0d3c 6b86 d0ba fbd5 f7bc 056a 253c
00000040: 2c42 283c f87c acbc 8d12 5e3c d8e1 243b
00000050: 956f 0ebc c9ff aa3b af6e b83b ddb6 a3bc
00000060: d818 0c3c 8250 e6bb 5162 93bc 7c7e 433d
00000070: 03d4 7d3c f3b5 07ba 0aba 42bd bfa9 033a
00000080: 64c1 9d3c 2eaf afbc 8069 6dbc 2813 76bb
00000090: a751 773b 7e96 a73c 3601 143c 6e68 323b
000000a0: 2868 bcbc d535 e6ba 9c24 4abb 58fb f1ba
000000b0: d5ff eb3b 788a 3dbc 4a14 e13b 6a6b 9238
000000c0: 0707 07bb aa8a e13b 92d7 71bb 7868 353b
000000d0: a7f9 83bb 3178 55ba 1d6f 3f3c 7494 a13c
000000e0: f66d 013c 0b2b 76bc 9c1e 663c 17b0 5f3c
000000f0: 4bbe 1d3b 16f6 4b3c 81b2 b3bc 9d22 413b
00000100: b9cf a5bc 6fc3 abbb c025 263c 15f2 473c
00000110: b89d 22bc ee51 2e3c af75 7d3b 2224 d3bb
00000120: 6088 a3bc 4eba b83b 01c3 c43a 587a 913a
00000130: b23e 5b3a a794 30ba c26b ef3b 5d06 533c
00000140: 4bf8 a33c 2b44 16bc 6139 2f3c d6c8 8cbc
00000150: 3713 893c 77bf 04bb 5b10 3fbc 8694 33bc
00000160: caad 263b 38d8 8dbb 9dab aabb 1835 2d3c
00000170: d390 643c c9d1 d23a 12bf b0bc bcda 22bc
00000180: 246d 193b 6d07 0dbb 1140 d2bb 378f 1ebc
00000190: 67dd ffbb df02 5bbc 0e53 323c acc5 a03c
000001a0: bfc5 c1bc 5220 12bc fb77 b5bb e6f7 1bbc
000001b0: a577 03bc bdff 103c ba92 263c 347a 6b3c
000001c0: 0344 413c 8007 1abc d9f1 753d 49a5 65bc
000001d0: 414d 18bc 2387 87bd ec57 163c 1464 123a
000001e0: acd5 adbc c685 283c 7d4e 1f3c da26 04bc
000001f0: ad53 11bb d510 9b3c e02b 413c 0e5c ec3a
00000200: d39d 6e3b bd1e 3c3c b18a 593c a02f 493c
00000210: cf90 7f3c 3bc6 bdbc e437 ec3b 5a0c febb
00000220: c42d 253c 6c8c 51bc 9bd4 413c d8c7 183c
00000230: f84c a3bc a5a3 5ebb c079 95bb f68d 933c
00000240: c06b 6b3c 852d 713c 2251 dc3b 70cd 10bb
00000250: ae0c 7d3c 14ae 7b3b 65b8 a6bb d80c 023b
00000260: 55a3 d8bb 6c41 4fbc 55de 5d3b 6a6e c63b
00000270: 6859 aa3c 24c8 a73a b351 1a3c 03df d03a
00000280: da0c 1b3c a201 15bb 43eb a43c e586 c53c
00000290: 362c e1bb de6c 86bc 6acc 90bc 9a0d 993b
000002a0: 311d c7bc 532d 53bc bafa 84bc 5ce4 b2bb
000002b0: d5f4 9fbc 0e6f 9cbc 9908 0cbd 86b1 39bc
000002c0: e1a2 243d 780a 7b3c a9b1 8bbc 2b0d c7bc
000002d0: 0b10 6bbc 84b2 5d3c 6e60 c2bb 5e59 1fbc
000002e0: 6c89 98bb 7ca7 88bb 7bd2 093c 7931 32bb
000002f0: 8400 d1ba 41be 3f3b 4333 82bb 4137 a33b
00000300: ad8f 17bc 4463 8f3b 251b bf3b dba0 6ebb
00000310: 5d7b 12bb 8adf 4c3b 04fc 953c f2b4 80b9
00000320: 6a66 adbb 6dcd 9bbb ea5d 6c3c b7f0 40bc
00000330: 16b4 333c 5a2d 003c 0725 09bc d520 60b9
00000340: 28c1 173b 95d5 3abc d5da 38bb 5753 d93a
00000350: 9926 143c 17bb eaba 2ea0 68b9 220c adbc
00000360: 3a60 acbb c23a 993b 9e52 95bc e57f 033c
00000370: fc0a a13c 5bc1 213a a734 d3bb 00bb efbb
00000380: 978b e8bb 01a0 c03b 0af6 b539 9a31 b13b
00000390: 46c4 8dbb 937b 263b ada5 923b 5381 0d3b
000003a0: aca0 7ebb 1d39 053c 74ff 81bb 489e cdbb
000003b0: a234 23ba a694 a03b 9c10 d9bb ab34 65bc
000003c0: 7cf2 7abb 3498 ffbc b4f9 173d d1b1 41bc
000003d0: 2408 4bbc 805b 05bc 155c 3d3c 8933 35bc
000003e0: 0fab 47bb d104 9a3b 669e 88bb f17e 98bc
000003f0: 65d1 9b3c f2e4 c43c 80cf 45bc e18c 24bb

bias f4 [20]
-0.012983609 -0.017774947 0.0014227792 0.010882804 -0.00023744011 0.015352544 0.0070989416 0.0052067474
-0.01033078 0.024417035 -0.009268553 -0.020997005 0.006190911 0.027509958 -0.011041009 0.001230637
0.015882712 0.0032723001 0.019096863 -0.013779897
00000000: 34b9 54bc c49c 91bc 8c7c ba3a ca4d 323c
00000010: 58f9 78b9 3d89 7b3c 3d9e e83b 5d9d aa3b
00000020: 6f42 29bc 3c06 c83c 21db 17bc e901 acbc
00000030: 20dd ca3b 905c e13c 59e5 34bc 534d a13a
00000040: 761c 823c 1674 563b 0671 9c3c 14c5 61bc

weight f4 [2, 20]
-0.1148855 -0.09674952 -0.16703711 -0.17272511 0.179644 -0.634426 -0.19181739 -0.18252303
0.6112323 -0.1620855 0.17008804 0.15199174 0.03600018 -0.16108058 -0.27228692 0.15176582
-0.13575667 0.16488516 -0.15815024 0.16023071 -0.41423443 0.4109523 -0.4102833 -0.4104549
0.40272698 -0.1785417 -0.4050572 -0.4052307 0.26733777 -0.39475298 0.40135214 0.405792
0.4262563 -0.4017247 -0.38375527 0.39749178 -0.4084414 0.3921589 -0.40132833 0.40631166
00000000: 1749 ebbd 9d24 c6bd c70b 2bbe dade 30be
00000010: 99f4 373e be69 22bf c76b 44be 51e7 3abe
00000020: b879 1c3f bef9 25be 8f2b 2e3e b9a3 1b3e
00000030: ed74 133d 4ff2 24be 3169 8bbe 8068 1b3e
00000040: cc03 0bbe a8d7 283e 23f2 21be 8513 243e
00000050: 8916 d4be 5768 d23e a710 d2be 2527 d2be
00000060: 3b32 ce3e a3d3 36be a863 cfbe 667a cfbe
00000070: 7fe0 883e 101d cabe 077e cd3e f8c3 cf3e
00000080: 443e da3e dcae cdbe 927b c4be 0b84 cb3e
00000090: 3b1f d1be 0dc9 c83e e87a cdbe 1508 d03e

bias f4 [2]
-0.15546456 -0.36803436
00000000: 1a32 1fbe 006f bcbe
